assets/best_model.tflite (tflite, 145080 bytes, 8 tensors)

arith.constant f4 [22, 32]
-0.6296343 0.3301246 -0.38138846 -0.3125234 -0.08850705 -0.40403476 -0.16069826 0.1707911
-0.16018322 0.006516946 0.2910753 -0.05591367 0.039290093 0.43399253 -0.18722597 0.32933742
0.2532464 0.037503753 -0.5573181 -0.123649225 -0.56721145 -0.076643854 0.2383356 0.1225835
0.31923252 -0.07844778 -0.5087174 -0.6969826 0.056545112 0.33483586 -0.3370639 -0.017309502
-0.16095972 -0.252205 -0.5896377 -0.34534198 0.15224673 -0.39316195 0.026517656 -0.04015767
-0.3269077 -0.41480976 0.33311564 -0.44353414 -0.007427077 -0.08443075 -0.107913435 -0.28559867
0.060659427 -0.12894057 -0.57275796 0.19565685 -0.08545453 0.3285978 -0.013356028 0.3659634
0.21435325 0.012226953 -0.17064738 0.07238964 -0.2079145 0.22295956 0.40324837 0.24007748
-0.4703823 0.19875859 -0.84973216 -0.045274023 -0.48943654 -0.6355892 0.025368823 0.16333996
0.25096086 -0.08699666 0.29624063 -0.08142057 -0.17346059 -0.112017535 -0.14270073 0.056942973
0.2922916 0.010358099 -0.67137414 -0.09210303 -0.3554981 -0.01109104 -0.1556101 -0.06539947
0.28426975 0.2623945 0.0051950854 -0.30180326 -0.3042201 0.26713315 -0.08478316 0.34564337
-0.059980325 -0.43406197 0.24474362 -0.006207891 -0.051166598 0.09528421 -0.119300194 0.20554155
-0.22633806 0.2332997 -0.26553667 -0.40692043 -0.0051493575 0.082456395 0.18357015 -0.2262078
-0.35493743 0.35345316 -0.15530545 -0.4062277 0.036227927 -0.07737316 0.31517228 0.24424809
-0.25033286 -0.19209394 -0.28282925 0.30518857 -0.13888237 -0.15112437 0.28763357 0.39306098
-0.18439543 0.35241064 -0.044506013 0.1641296 -0.51695436 0.1246005 0.34225136 -0.0525548
0.086248346 0.14087194 0.2174513 0.10829069 0.04538905 -0.013358231 -0.079297945 -0.26359016
0.0483032 -0.34510788 0.028879644 0.040050454 -0.08911487 0.307958 -0.24123351 -0.6241162
-0.23455814 -0.010014133 0.128999 -0.29766384 0.32012254 -0.083113365 0.0155068645 -0.40042886
-0.08450673 -0.08125454 0.07232992 0.032587957 -0.25076842 -0.0008497485 0.15240306 0.07556215
0.04844825 -0.23313797 -0.10010829 -0.3180103 -0.40391386 0.096066065 0.22075857 0.06906165
-0.15893641 0.12695226 -0.38219145 -0.4595073 0.19299449 -0.09315734 0.023847029 -0.1039354
0.078164995 0.038647503 -0.018285103 0.38915995 -0.12196114 -0.11244432 0.06698731 0.1957532
-0.13870114 -0.1249586 -0.22608627 -0.050465573 0.49103504 0.22971642 0.17710711 -0.17035341
-0.31180745 -0.25057936 0.20943229 0.16356827 0.10180108 -0.32175478 -0.20693988 -0.27941152
-0.38951677 -0.16872773 0.080625795 0.1750124 0.34017745 0.021645302 -0.19315608 0.30802327
0.21570341 -0.60014 0.19079329 0.33086047 -0.17158324 -0.5215392 0.19597931 0.13458556
0.39064673 0.037499484 0.06845189 -0.051159285 -0.3190333 0.15457079 0.0318933 -0.067430735
0.21093005 0.26642242 0.14456266 -0.12927265 -0.2418043 -0.20141108 0.30513823 0.1274414
-0.28222644 -0.3585254 0.23459199 -0.10008819 -0.15526862 -0.48397332 -0.20649512 -0.38866526
-0.27533874 -0.53801113 0.3379998 0.11117897 -0.23435654 -0.60003364 -0.569629 -0.15691064
00000000: b72f 21bf 1706 a93e 5945 c3be 1103 a0be
00000010: 2f43 b5bd a5dd cebe 168e 24be dde3 2e3e
00000020: 1207 24be 1b8c d53b d207 953e bc05 65bd
00000030: a6ee 203d 4534 de3e 2ab8 3fbe ea9e a83e
00000040: 83a9 813e 899d 193d 66ac 0ebf ce3b fdbd
00000050: c534 11bf 74f7 9cbd 3f0e 743e 0f0d fb3d
00000060: 7272 a33e 3ba9 a0bd 4e3b 02bf 746d 32bf
00000070: d99b 673d 9b6f ab3e a493 acbe a8cc 8dbc
00000080: a0d2 24be 0421 81be 7ff2 16bf aad0 b0be
00000090: 91e6 1b3e 864c c9be 8e3b d93c 5e7c 24bd
000000a0: 7260 a7be f261 d4be 228e aa3e e816 e3be
000000b0: d65e f3bb 07ea acbd b801 ddbd fd39 92be
000000c0: 0576 783d ff08 04be 44a0 12bf 455a 483e
000000d0: c902 afbd f93d a83e 3ed3 5abc 8e5f bb3e
000000e0: 6b7f 5b3e 8f53 483c 30be 2ebe 0541 943d
000000f0: 8ae7 54be 834f 643e 9276 ce3e dfd6 753e
00000100: f3d5 f0be 5f87 4b3e 0c88 59bf 4171 39bd
00000110: 6d97 fabe f9b5 22bf 47d2 cf3c 9742 273e
00000120: f17d 803e 4e2b b2bd daac 973e d4bf a6bd
00000130: a79f 31be 7369 e5bd 2420 12be 093d 693d
00000140: 3fa7 953e 04b5 293c 2ddf 2bbf 83a0 bcbd
00000150: d903 b6be 32b7 35bc 4158 1fbe 28f0 85bd
00000160: ce8b 913e 9258 863e 893b aa3b f585 9abe
00000170: bdc2 9bbe adc5 883e cba2 adbd 2bf8 b03e
00000180: eead 75bd 5f3d debe 129e 7a3e 906b cbbb
00000190: 1194 51bd 5e24 c33d a953 f4bd 7c79 523e
000001a0: 2ac5 67be 1ee6 6e3e 6cf4 87be e057 d0be
000001b0: f1bb a8bb e6de a83d d0f9 3b3e 04a3 67be
000001c0: 5cba b5be d0f7 b43e 6408 1fbe 14fd cfbe
000001d0: bc63 143d d275 9ebd 435e a13e 2c1c 7a3e
000001e0: a12b 80be 46b4 44be ffce 90be ad41 9c3e
000001f0: 2e37 0ebe 59c0 1abe b544 933e 4a3f c93e
00000200: 28d2 3cbe 2b6f b43e f04b 36bd 9711 283e
00000210: 1f57 04bf 8c2e ff3d 923b af3e b443 57bd
00000220: f9a2 b03d bc40 103e 8eab 5e3e 82c7 dd3d
00000230: dee9 393d 7bdc 5abc f666 a2bd 4af5 86be
00000240: 94d9 453d fbb1 b0be 0195 ec3c f20b 243d
00000250: db81 b6bd acac 9d3e eb05 77be 14c6 1fbf
00000260: 0230 70be 5112 24bc 5018 043e 6567 98be
00000270: 1ae7 a33e 5737 aabd 8110 7e3c 0305 cdbe
00000280: dd11 adbd c868 a6bd b621 943d f37a 053d
00000290: b864 80be a8c1 5eba 8c0f 1c3e 54c0 9a3d
000002a0: ac71 463d b8bb 6ebe 9305 cdbd 3fd2 a2be
000002b0: cccd cebe 49be c43d 890e 623e 3270 8d3d
000002c0: 3ac0 22be c6ff 013e 99ae c3be 8a44 ebbe
000002d0: 59a0 453e 47c9 bebd d85a c33c 15dc d4bd
000002e0: f814 a03d d84c 1e3d a4ca 95bc f93f c73e
000002f0: c3c6 f9bd 3549 e6bd a530 893d 8773 483e
00000300: ac07 0ebe 4bea ffbd 2983 67be fdb4 4ebd
00000310: f268 fb3e c83a 6b3e 915b 353e 2071 2ebe
00000320: 3aa5 9fbe f04b 80be 6b75 563e 717e 273e
00000330: 167d d03d 0bbd a4be 0ce8 53be 070f 8fbe
00000340: be6e c7be f6c6 2cbe 231f a53d 7336 333e
00000350: bd2b ae3e 7d51 b13c b5ca 45be 3ab5 9d3e
00000360: 5be1 5c3e c6a2 19bf 515f 433e 8b66 a93e
00000370: 84b3 2fbe 9883 05bf cdae 483e ccd0 093e
00000380: d902 c83e 0f99 193d 8130 8c3d 668c 51bd
00000390: 5558 a3be ce47 1e3e 8da2 023d 2019 8abd
000003a0: 0cfe 573e 8568 883e 3c08 143e 0d60 04be
000003b0: 8c9b 77be b53e 4ebe 143b 9c3e 0080 023e
000003c0: fc7f 90be a490 b7be e238 703e 09fb ccbd
000003d0: bdfe 1ebe 5acb f7be 7573 53be 22ff c6be
000003e0: 33f9 8cbe 19bb 09bf 4f0e ad3e cdb1 e33d
000003f0: 29fb 6fbe ce9b 19bf 35d3 11bf 2fad 20be

arith.constant1 f4 [32, 64]
0.102034435 0.0012099023 0.06792469 0.036572285 0.098810054 0.021342566 0.023012904 -0.18626206
0.15468852 0.061533652 -0.0647442 0.27643386 -0.23257244 -0.16155453 0.26216817 -0.023433851
0.26566517 -0.021474887 0.155561 0.08721902 -0.08927096 -0.13066871 0.18774027 0.0859614
0.11350207 0.028665045 0.31447235 0.12525788 0.034549 -0.0647991 0.11806345 -0.0912755
0.3998518 0.10033797 0.11381103 0.04840986 0.24061698 0.11089967 0.21768622 -0.14489028
-0.051666707 0.13323808 -0.2735282 -0.23973514 -0.21485896 -0.17560717 0.37221354 0.1287525
-0.08432611 0.031354044 0.30307958 -0.053435963 0.05490035 0.19122075 -0.099784635 0.2779897
-0.10362627 0.09197875 0.2156146 0.14495635 0.28655243 0.27182505 0.03198801 -0.008043028
0.28413016 0.21696948 -0.23819897 0.022613477 -0.13122171 0.21141388 0.23650217 0.07844829
-0.11122157 0.38449553 -0.093680575 -0.14894523 -0.022793554 0.2905856 0.17697708 0.26649514
0.43249872 -0.007947298 0.08768563 -0.39385283 0.23627979 -0.106511354 0.024481127 0.28885886
0.23429286 0.10321444 -0.15973741 0.12299108 0.22281839 0.1767593 0.5057961 0.3177828
0.2758518 -0.021776306 -0.16758679 -0.09629811 -0.12639375 0.005277804 -0.14382598 -0.19314176
0.112034336 0.26760656 -0.030499956 0.033050936 -0.08561908 0.36149442 -0.32021603 0.14062808
0.42447302 0.20903154 0.3041832 0.061445326 -0.0074361223 0.3897913 -0.06706516 0.20432967
-0.42458358 0.13234007 0.03383832 0.17896493 -0.26315695 -0.024270285 0.14631088 0.034533523
-0.09689704 0.09391523 0.14081497 -0.08845567 0.20718594 0.2945971 -0.100425735 0.09773713
0.18827559 0.08336257 -0.11320751 0.24950448 -0.0725871 0.061534595 0.23345166 -0.032066487
0.3747669 0.21673502 -0.028073376 0.10252915 0.17223267 0.12897031 0.28125304 0.014020113
0.38374156 0.23055528 0.005456387 0.47138768 -0.23270658 -0.16507526 0.2518566 -0.008997232
0.19359566 0.2372285 0.22939178 0.22835402 0.08747933 0.34696266 -0.16165859 0.060272016
0.2208872 0.30509338 -0.1933767 -0.19674295 0.16712193 -0.17285109 -0.31148484 0.03276857
-0.008403509 0.085922346 0.011169351 -0.14791803 0.2061192 0.15836777 0.035602562 0.2824822
0.05592566 -0.01378917 0.21848626 -0.020529104 0.059140272 0.45729467 0.123337194 0.15139039
0.09481646 0.15845087 0.18998848 -0.051356215 -0.046734497 -0.2529131 0.073149845 0.21681812
-0.1247071 -0.15080819 0.08510728 0.055465337 -0.059240557 0.23658292 0.08080201 0.08064175
0.22657953 -0.05868738 0.32405126 0.25401908 -0.34429416 -0.03163085 -0.17406535 0.047974102
-0.0968226 -0.16854395 -0.044544946 -0.23181744 -0.055185176 0.13200828 -0.12024468 0.21332352
-0.27780202 0.23534276 0.308838 0.30574954 0.11052744 -0.19529723 0.118713796 0.273287
0.27032557 0.046461694 0.04824316 -0.28907534 0.044711433 0.0710397 -0.013493961 -0.046540894
-0.09917552 -0.08989387 -0.029051352 0.025447909 0.0827758 -0.20309108 -0.09982333 0.10269928
0.31194538 0.03759943 0.3439226 0.24672242 0.15264976 0.119080864 0.15011276 -0.1844222
00000000: 6ef7 d03d 9695 9e3a 1a1c 8b3d d2cc 153d
00000010: ed5c ca3d 9bd6 ae3c 8f85 bc3c 7bbb 3ebe
00000020: ab66 1e3e b60a 7c3d 9b98 84bd bd88 8d3e
00000030: 7827 6ebe 8d6e 25be e83a 863e 59f8 bfbc
00000040: 4405 883e 1aec afbc 624b 1f3e e39f b23d
00000050: b1d3 b6bd 05ce 05be fc3e 403e 880c b03d
00000060: c673 e83d f5d2 ea3c 8502 a13e 9a43 003e
00000070: 4183 0d3d 64b5 84bd 40cb f13d a6ee babd
00000080: 60b9 cc3e fe7d cd3d c215 e93d 6b49 463d
00000090: 4c64 763e 5e1f e33d 23e9 5e3e 1e5e 14be
000000a0: 78a0 53bd 906f 083e e30b 8cbe 217d 75be
000000b0: fd03 5cbe 5ed2 33be c692 be3e b2d7 033e
000000c0: 2bb3 acbd 196d 003d 3f2d 9b3e abdf 5abd
000000d0: 30df 603d 5fcf 433e e35b ccbd aa54 8e3e
000000e0: 033a d4bd 5b5f bc3d 13ca 5c3e 706f 143e
000000f0: 00b7 923e a72c 8b3e dc05 033d e8c6 03bc
00000100: 8279 913e 3f2d 5e3e 6eea 73be e63f b93c
00000110: fc5e 06be e17c 583e a02d 723e 7fa9 a03d
00000120: 22c8 e3bd 99dc c43e 9adb bfbd 1985 18be
00000130: 8cb9 babc a3c7 943e 7b39 353e 0d72 883e
00000140: 7970 dd3e 6235 02bc 8694 b33d 14a7 c9be
00000150: 54f3 713e a022 dabd a58c c83c 4fe5 933e
00000160: 78ea 6f3e 1862 d33d 3492 23be bfe2 fb3d
00000170: 812a 643e 6400 353e da7b 013f 6db4 a23e
00000180: 723c 8d3e 3964 b2bc df9b 2bbe f237 c5bd
00000190: 5d6d 01be 6ef1 ac3b 1e47 13be f4c6 45be
000001a0: 4272 e53d ba03 893e 0bdb f9bc 6b60 073d
000001b0: 0e59 afbd cc15 b93e 5bf3 a3be cf00 103e
000001c0: 8754 d93e 5d0c 563e e6bd 9b3e 18ae 7b3d
000001d0: b7aa f3bb ba92 c73e 7559 89bd cc3b 513e
000001e0: 0563 d9be 2884 073e 0d9a 0a3d 9542 373e
000001f0: 82bc 86be 7ad2 c6bc 85d2 153e 0673 0d3d
00000200: f571 c6bd a156 c03d cd31 103e 3f28 b5bd
00000210: 8d28 543e 6ed5 963e 02ac cdbd 682a c83d
00000220: 51cb 403e ffb9 aa3d 57d9 e7bd 1a7e 7f3e
00000230: 8ca8 94bd b30b 7c3d f40d 6f3e 2658 03bd
00000240: 72e1 bf3e c9ef 5d3e 23fa e5bc cefa d13d
00000250: c35d 303e cb10 043e 6600 903e 9eb4 653c
00000260: c679 c43e af16 6c3e 7ecb b23b ba59 f13e
00000270: a24a 6ebe 7d09 29be 59f3 803e 2069 13bc
00000280: f13d 463e 07ec 723e aee5 6a3e a3d5 693e
00000290: 5d28 b33d 17a5 b13e d489 25be cadf 763d
000002a0: 4130 623e 3335 9c3e 8b04 46be fc76 49be
000002b0: 0322 2b3e e0ff 30be f17a 9fbe 5638 063d
000002c0: dfae 09bc 0ef8 af3d a7ff 363c d377 17be
000002d0: e910 533e 292b 223e fed3 113d 82a1 903e
000002e0: 4e12 653d f9eb 61bc ddba 5f3e a72c a8bc
000002f0: 123d 723d 8722 ea3e 3698 fc3d 1506 1b3e
00000300: 222f c23d f240 223e 578c 423e e55a 52bd
00000310: ac6c 3fbd d37d 81be 96cf 953d 9205 5e3e
00000320: 7066 ffbd 766d 1abe ba4c ae3d 9f2f 633d
00000330: 3aa6 72bd cb42 723e 867b a53d 8027 a53d
00000340: 7704 683e 2e62 70bd 0cea a53e ca0e 823e
00000350: 5347 b0be 5a8f 01bd 303e 32be 7e80 443d
00000360: ed4a c6bd c996 2cbe c374 36bd 8d61 6dbe
00000370: da09 62bd 2e2d 073e d842 f6bd 7b71 5a3e
00000380: 113c 8ebe b1fd 703e 0420 9e3e 348b 9c3e
00000390: 365c e23d fffb 47be 3820 f33d 46ec 8b3e
000003a0: 1d68 8a3e 9e4e 3e3d 9f9a 453d af01 94be
000003b0: 5623 373d 437d 913d c615 5dbc aaa1 3ebd
000003c0: 891c cbbd 471a b8bd 1afd edbc 2278 d03c
000003d0: 5c86 a93d 1cf7 4fbe 2d70 ccbd 0054 d23d
000003e0: 4eb7 9f3e dc01 1a3d 9f16 b03e cda4 7c3e
000003f0: 3850 1c3e abe0 f33d 29b7 193e 2cd9 3cbe

arith.constant2 f4 [64, 256]
0.016368255 -0.039409444 0.32220116 -0.03386692 0.29948807 0.09943752 -0.016015274 -0.09520192
-0.11437745 0.14598879 -0.05850137 -0.02053126 0.12004071 -0.033426348 0.071506746 0.21094851
-0.0832774 0.13557744 0.18325888 -0.16824047 0.10836182 0.114420846 0.115784295 -0.0142693
-0.10522581 -0.050516725 -0.0896529 0.13235077 0.32723662 0.1873641 0.25655663 0.24716286
0.0061894557 -0.11567114 -0.08458749 -0.10433917 0.044549577 -0.104657695 -0.045033388 -0.039127354
0.12858695 -0.051098052 0.045763284 -0.05391875 -0.045299783 -0.12330148 -0.09572363 -0.14222178
0.2582227 -0.03049238 -0.033283588 0.13118248 0.18386337 0.11322581 0.15314026 0.06518928
0.07019563 0.03308849 0.10095438 0.31312263 -0.20138976 -0.053773932 -0.105927765 0.2182521
-0.05209311 -0.069392495 0.19028306 0.081651166 0.071219414 0.2991494 0.045064673 -0.17445272
0.014513627 0.0015451731 -0.008295974 0.13339463 0.04635112 0.20876677 0.044463288 0.036505938
0.02543016 0.061410796 0.3349849 -0.040681057 0.33650213 0.25027552 -0.11634304 -0.16628657
0.08049627 0.12226853 0.05004454 0.033658486 0.06474431 0.023455977 -0.070851855 -0.13795279
0.028038248 0.016407197 -0.11665366 -0.011500433 0.29641175 0.18886766 -0.1265695 -0.035318725
0.15326287 0.18211651 -0.04017073 -0.020630715 -0.013031036 -0.092008054 0.124682516 0.14447872
-0.093607575 0.10189917 -0.16088171 0.10801958 0.21187605 0.09703307 0.009135783 0.05565652
-0.009961784 0.24448499 0.1632535 -0.007191375 0.20545293 -0.15870555 0.079595014 0.15534458
0.09909071 0.12607169 0.053930566 0.28265196 -0.18950126 0.106585674 0.12827492 0.1019426
0.21736892 0.19999467 0.01835165 0.104903445 0.033778425 0.47655895 0.008148059 0.024352109
0.24248943 -0.04067453 0.04823075 -0.06150195 -0.005397938 -0.09574271 0.30836907 -0.02962814
-0.01826704 -0.09312256 0.12313464 0.12537286 -0.005929048 -0.0761777 0.19745354 -0.011639098
0.031391244 0.3162699 -0.068525665 0.23278984 0.24293734 -0.18841363 0.04489234 0.16143134
-0.01099419 0.11891079 0.24232893 -0.08677481 0.108138055 -0.060492605 0.023661464 0.0632686
-0.027811557 -0.009237834 -0.07619173 -0.17148834 -0.00947455 0.18314952 0.32209778 -0.02923476
0.014652282 0.14693579 -0.063974276 0.11139949 -0.07501937 -0.01694572 0.015483151 0.25452638
0.108645506 0.29933456 -0.17951305 -0.046778027 0.01308914 0.042642128 0.10423108 0.110481694
-0.048324525 0.026375592 0.0031162351 0.3222724 -0.108378984 0.06781932 -0.04629096 -0.02053468
-0.15504557 0.280019 0.18077461 0.30419597 -0.10159801 -0.037193276 -0.07889253 -0.19136359
0.25450313 0.087325215 -0.08128573 0.19244364 -0.081862755 -0.31846297 -0.082338825 0.011276765
0.021322196 0.07262477 -0.12206104 -0.10197342 -0.07942365 -0.00011275709 0.1586436 -0.088576674
0.13716584 0.08244883 0.13019529 -0.04359156 -0.34036323 -0.19662341 -0.049195044 0.13557407
-0.055864118 -0.074467994 0.12999709 -0.069417566 -0.031809088 0.08328526 0.18604864 -0.084632546
-0.016302742 -0.026967146 0.07435882 0.22563642 -0.0077746063 -0.004394591 -0.051393263 0.006803497
00000000: b816 863c cc6b 21bd 8df7 a43e 0ab8 0abd
00000010: 8056 993e e6a5 cb3d 7732 83bc 39f9 c2bd
00000020: b93e eabd 167e 153e 229f 6fbd 2c31 a8bc
00000030: e7d7 f53d 11ea 08bd 2172 923d e302 583e
00000040: 578d aabd d0d4 0a3e 37a8 3b3e 3b47 2cbe
00000050: cdec dd3d 7a55 ea3d 5120 ed3d c8c9 69bc
00000060: a180 d7bd a0ea 4ebd f19b b7bd f686 073e
00000070: 8f8b a73e 60dc 3f3e 645b 833e 4318 7d3e
00000080: ebd0 ca3b fee4 ecbd 353c adbd c6af d5bd
00000090: 9e79 363d c656 d6bd ee74 38bd 0144 20bd
000000a0: 4cac 033e 314c 51bd 4872 3b3d e8d9 5cbd
000000b0: 448c 39bd 7d85 fcbd c00a c4bd 96a2 11be
000000c0: c435 843e 28cb f9bc 5f54 08bd b354 063e
000000d0: ae46 3c3e efe2 e73d cdd0 1c3e f581 853d
000000e0: bac2 8f3d cc87 073d 2cc1 ce3d 9c51 a03e
000000f0: 1e39 4ebe 0e42 5cbd a8f0 d8bd 7a7d 5f3e
00000100: 965f 55bd a71d 8ebd 90d9 423e ba38 a73d
00000110: 7cdb 913d 1c2a 993e bc95 383d bca3 32be
00000120: 90ca 6d3c 6887 ca3a d6eb 07bc 9a98 083e
00000130: acda 3d3d f5c6 553e 231f 363d 4087 153d
00000140: e952 d03c e389 7b3d 2483 ab3e 2ea1 26bd
00000150: 024a ac3e 1d24 803e 4245 eebd 0747 2abe
00000160: 3adb a43d ec67 fa3d 81fb 4c3d 7bdd 093d
00000170: aa98 843d c026 c03c c71a 91bd 7f43 0dbe
00000180: 78b0 e53c 6368 863c 1de8 eebd 506c 3cbc
00000190: 48c3 973e 8666 413e 6f9b 01be 5eaa 10bd
000001a0: f1f0 1c3e c07c 3a3e 108a 24bd bf01 a9bc
000001b0: 2080 55bc b86e bcbd 8c59 ff3d 3bf2 133e
000001c0: 54b5 bfbd 83b0 d03d 2dbe 24be 5f39 dd3d
000001d0: 09f6 583e 46b9 c63d 40ae 153c 17f8 633d
000001e0: c036 23bc 465a 7a3e ed2b 273e a0a5 ebbb
000001f0: 4162 523e b583 22be b602 a33d a612 1f3e
00000200: 12f0 ca3d f018 013e 4ce6 5c3d c2b7 903e
00000210: 9e0c 42be 9749 da3d 805a 033e 48c7 d03d
00000220: f595 5e3e 67cb 4c3e 3356 963c 9ed7 d63d
00000230: 3f5b 0a3d 89ff f33e 707f 053c 137e c73c
00000240: 264f 783e 569a 26bd 9b8d 453d 78e9 7bbd
00000250: 30e1 b0bb c114 c4bd 8de2 9d3e b7b6 f2bc
00000260: c2a4 95bc 0ab7 bebd 042e fc3d be61 003e
00000270: 7648 c2bb 0e03 9cbd 4331 4a3e eab1 3ebc
00000280: 1b94 003d 21ee a13e 2f57 8cbd 7660 6e3e
00000290: 91c4 783e 81ef 40be 08e1 373d 424e 253e
000002a0: fa20 34bc 8087 f33d 1325 783e feb6 b1bd
000002b0: 7c77 dd3d 18c7 77bd b0d5 c13c f892 813d
000002c0: 10d5 e3bc 495a 17bc 690a 9cbd a49a 2fbe
000002d0: 253b 1bbc 8c8b 3b3e 00ea a43e bc7d efbc
000002e0: 2010 703c 5676 163e f204 83bd 6a25 e43d
000002f0: c1a3 99bd c0d1 8abc 0bad 7d3c 4851 823e
00000300: 8981 de3d 6142 993e 45d2 37be 519a 3fbd
00000310: d573 563c 83a9 2e3d 1b77 d53d 3a44 e23d
00000320: f0ef 45bd a011 d83c c039 4c3b e300 a53e
00000330: cdf5 ddbd dbe4 8a3d 979b 3dbd 5838 a8bc
00000340: 44c4 1ebe a65e 8f3e fb1c 393e 93bf 9b3e
00000350: 9e12 d0bd fa57 18bd 6892 a1bd d1f4 43be
00000360: 3c4e 823e 90d7 b23d 2279 a6bd f20f 453e
00000370: a9a7 a7bd 940d a3be 42a1 a8bd 2ec2 383c
00000380: e3ab ae3c 4cbc 943d 23fb f9bd 71d7 d0bd
00000390: dea8 a2bd 0078 ecb8 7873 223e b067 b5bd
000003a0: 3475 0c3e efda a83d ea51 053e 108d 32bd
000003b0: 1744 aebe a657 49be be80 49bd eed3 0a3e
000003c0: c6d1 64bd ad82 98bd f51d 053e cc2a 8ebd
000003d0: 3f4a 02bd 7691 aa3d 8983 3e3e d453 adbd
000003e0: 548d 85bc 34ea dcbc 7049 983d 3c0d 673e
000003f0: 20c2 febb 8000 90bb be81 52bd dfef de3b

arith.constant3 f4 [64]
0.12324777 0.06607565 0.07813069 0.07680752 0.032001417 0.06904484 0.019670628 0.06976242
0.041680437 0.053456765 0.1316734 0.049927756 0.030214172 0.09722048 0.06322131 0.100871034
0.16935448 0.038068257 0.009648045 0.0403756 0.06696693 0.06802478 0.06616383 0.06527141
0.078996815 0.03345278 -0.017098697 0.058696404 0.08297086 0.038036495 0.09480445 -0.003931772
0.023061628 0.04840548 0.060522642 0.0037331427 0.026154684 0.0439876 0.062307987 0.14654216
-0.027448589 0.11410447 0.027851097 0.06666822 0.12830377 0.023783633 -0.02686827 0.106485724
0.13065888 0.063989416 -0.018519372 -0.005798891 0.026699785 0.07873703 0.014344375 0.009956051
0.06560001 -0.0004038116 0.1023015 0.08676396 0.0940375 0.08505069 0.19200237 0.118647784
00000000: 5469 fc3d ac52 873d fc02 a03d 434d 9d3d
00000010: eb13 033d 6267 8d3d 4c24 a13c 9adf 8e3d
00000020: 1bb9 2a3d 7bf5 5a3d 64d5 063e 0c81 4c3d
00000030: b683 f73c 881b c73d 2d7a 813d 7995 ce3d
00000040: 436b 2d3e 76ed 1b3d d512 1e3c e360 253d
00000050: f525 893d 9350 8b3d e780 873d 04ad 853d
00000060: 15c9 a13d c805 093d 9112 8cbc a46b 703d
00000070: a0ec a93d 28cc 1b3d d628 c23d 18d6 80bb
00000080: bdeb bc3c d344 463d 97e6 773d bea7 743b
00000090: 5942 d63c 572c 343d a936 7f3d 260f 163e
000000a0: dddb e0bc 9baf e93d fc27 e43c 5989 883d
000000b0: 1062 033e e5d5 c23c d91a dcbc 3015 da3d
000000c0: 71cb 053e e20c 833d f0b5 97bc a004 bebb
000000d0: 82b9 da3c e140 a13d ab04 6b3c b41e 233c
000000e0: 4c59 863d adb6 d3b9 7383 d13d 4eb1 b13d
000000f0: bc96 c03d 0e2f ae3d 459c 443e 9cfd f23d

sequential_2_1/dense_10_1/Add/ReadVariableOp f4 [32]
0.054926835 0.14188734 0.21873231 0.0120746335 0.079716034 0.06506018 0.107009895 -0.03421428
-0.06197742 0.09603959 0.05806615 0.118246 0.17102273 0.07597098 0.13463311 0.12928694
0.12732837 0.04883355 0.11927803 0.14021173 0.054441758 0.036881436 -0.032106966 0.15989399
0.13225318 0.08042051 -0.00077870715 0.10607181 0.15566881 0.005771574 0.13207059 -0.014174241
00000000: f6fa 603d ea4a 113e 5dfb 5f3e afd4 453c
00000010: 2942 a33d 463e 853d 0128 db3d 4624 0cbd
00000020: 09dc 7dbd 68b0 c43d c5d6 6d3d f52a f23d
00000030: 9520 2f3e ac96 9b3d 43dd 093e cc63 043e
00000040: 5e62 023e b005 483d 0a48 f43d aa93 0f3e
00000050: 52fe 5e3d fd10 173d 9882 03bd 40bb 233e
00000060: 616d 073e 82b3 a43d 2722 4cba 2d3c d93d
00000070: a567 1f3e 791f bd3b 833d 073e 133b 68bc

sequential_2_1/dense_11_1/Add/ReadVariableOp f4 [22]
0.013978014 -0.035464216 -0.08761776 0.00019873024 -0.07382378 -0.005068555 0.022830117 0.05805694
0.13193974 0.038501766 -0.051693596 -0.0055638156 0.07272454 -0.038192958 -0.09117943 0.047093276
0.03775155 -0.0057551595 0.03884944 -0.07235618 -3.0407304e-05 -0.051321138
00000000: 0a04 653c ed42 11bd f170 b3bd 3e62 5039
00000010: ec30 97bd 1f16 a6bb 3a06 bb3c 1dcd 6d3d
00000020: 361b 073e 07b4 1d3d aabc 53bd ab50 b6bb
00000030: 9bf0 943d 3870 1cbd 48bc babd e1e4 403d
00000040: 5fa1 1a3d c795 bcbb 9720 1f3d 7a2f 94bd
00000050: 3013 ffb7 1d36 52bd

sequential_2_1/dense_8_1/Add/ReadVariableOp f4 [256]
0.0 -0.041825745 0.039069954 0.0 0.06382252 -0.014140832 -0.024009058 0.0
-0.0051118066 -0.021096798 -0.022390136 -0.044619646 0.05728982 0.036866527 -0.009764488 0.012252714
-0.0061645224 0.0027763827 0.032519277 0.03215497 -0.012247088 0.00037863833 -0.035411194 0.0
-0.04638912 0.009936034 -0.0035250057 0.0 0.059743967 -0.008769966 0.0022519745 -0.02201927
0.0057851425 0.0 0.0 0.0 0.03212029 -0.0048114224 -0.0064616892 -0.010294568
0.0 -0.033538442 -0.0059932824 0.0 -0.0152220605 -0.0054675406 -0.015069065 -0.0032861526
-0.02008928 0.0 -0.016241102 0.043868713 0.005364504 -0.008701111 -0.016831566 -0.0008203234
0.0 -0.0058734715 0.0 0.05083187 -0.019504618 0.0 0.0 0.03420528
-0.0354455 0.0 0.0003566323 0.0 0.0 -0.0033544009 0.0 -0.010358959
0.0 -0.0051382086 -0.0051189708 0.013786359 0.0 0.052454732 -0.011484798 0.006611943
0.04024214 -0.026845535 0.029511852 -0.005156994 -0.009524893 0.014176389 -0.0235025 0.0002092738
-0.0051425695 0.0 -0.045709144 0.00039080207 -0.010577276 0.0 -0.025383294 -0.027612843
0.0 0.04119953 0.0120917605 -0.006232875 0.016469613 0.027423978 0.01733776 -0.0059997262
-0.01103148 -0.031991616 0.010984057 -0.02743122 0.0 -0.0038532345 0.0 0.00028249272
0.0 -0.0052526724 0.008660028 0.01522018 0.06147191 -0.016942153 0.0 -0.064789236
0.0 -0.007138314 -0.0090009915 0.0 0.049899153 -0.029202122 0.0 0.0027371051
0.0 -0.05009951 0.0 -0.00767673 -0.041587625 0.056756817 -0.010399968 0.0
0.018306024 0.030911205 0.012780625 -0.005335819 0.0037822407 0.05505217 -0.005760748 0.046778854
0.021117251 -0.0072245207 -0.004613163 0.0 -0.005607048 -0.0051489365 0.008964726 0.02569259
-0.0051527703 -0.025004806 0.0 0.022720177 -0.088965826 0.0 0.036368255 -0.03767191
-0.010407631 0.049797233 0.017666468 0.032684516 0.04250094 -0.06664172 0.0 -0.00051986804
0.021552686 -0.0055472786 0.05257809 -0.065903865 -0.0059341704 -0.06752883 0.0 0.052226998
0.0 -0.009450912 -0.0029613636 -0.00919114 -0.009089166 0.048627984 0.05359691 -0.05533992
0.0 -0.008296438 -0.0058286237 -0.0071819825 0.0 0.0 -0.0034962296 0.059520476
0.0024076842 0.03761762 -0.0048330426 -0.056806166 -0.03710265 -0.008492115 0.0233821 -0.021910993
0.0 0.030498054 0.0 0.06766209 0.0 -0.025373634 -0.008953222 -0.008364569
0.009335056 0.05445771 -0.0070972857 0.056050394 0.0059956866 -0.0023378609 0.03159482 -0.049627632
0.015730448 -0.0051498995 -0.010906977 0.03329597 0.0 -0.028495094 -0.004817365 0.034223154
0.034901045 -0.059115313 -0.008023298 -0.014494493 0.0 -0.007151936 0.059954606 0.0
0.05983092 -0.011311083 0.0 -0.02593078 -0.0034129177 0.026643671 0.03872951 -0.04633752
-0.039429773 -0.006173598 -0.0050123157 -0.017984794 0.023128811 -0.061337862 -0.01797414 0.0
0.0 0.0100676445 -0.024457037 0.05138599 -0.0064931 0.0 0.0 -0.010867729
00000000: 0000 0000 7951 2bbd d107 203d 0000 0000
00000010: 62b5 823d f3ae 67bc a5ae c4bc 0000 0000
00000020: f180 a7bb 31d3 acbc 856b b7bc 17c3 36bd
00000030: bba8 6a3d 5b01 173d 3bfb 1fbc 9bbf 483c
00000040: c3ff c9bb f9f3 353b ef32 053d eeb4 033d
00000050: 03a8 48bc fa83 c639 540b 11bd 0000 0000
00000060: 8502 3ebd bfca 223c c803 67bb 0000 0000
00000070: 17b6 743d e7af 0fbc dd95 133b c261 b4bc
00000080: 4b91 bd3b 0000 0000 0000 0000 0000 0000
00000090: 9190 033d 23a9 9dbb 94bc d3bb 8caa 28bc
000000a0: 0000 0000 9b5f 09bd 4c63 c4bb 0000 0000
000000b0: f365 79bc 0e29 b3bb 3de4 76bc 7e5c 57bb
000000c0: 4692 a4bc 0000 0000 0f0c 85bc aeaf 333d
000000d0: b9c8 af3b 1b8f 0ebc 5ae2 89bc f90a 57ba
000000e0: 0000 0000 4076 c0bb 0000 0000 1435 503d
000000f0: 26c8 9fbc 0000 0000 0000 0000 d61a 0c3d
00000100: 4d2f 11bd 0000 0000 61fa ba39 0000 0000
00000110: 0000 0000 82d5 5bbb 0000 0000 a0b8 29bc
00000120: 0000 0000 6b5e a8bb 0abd a7bb 2ee0 613c
00000130: 0000 0000 c6da 563d bc2a 3cbc ffa8 d83b
00000140: f1d4 243d 2beb dbbc d7c2 f13c 00fc a8bb
00000150: 4c0e 1cbc 1644 683c 5188 c0bc 8270 5b39
00000160: 0083 a8bb 0000 0000 8339 3bbd 91e4 cc39
00000170: 504c 2dbc 0000 0000 a0f0 cfbc 5434 e2bc
00000180: 0000 0000 d7c0 283d 851c 463c 253d ccbb
00000190: 48eb 863c 40a8 e03c eb07 8e3c 5a99 c4bb
000001a0: 61bd 34bc a409 03bd 79f6 333c 70b7 e0bc
000001b0: 0000 0000 8c86 7cbb 0000 0000 881b 9439
000001c0: 0000 0000 9c1e acbb cae2 0d3c 105e 793c
000001d0: f8c9 7b3d 45ca 8abc 0000 0000 38b0 84bd
000001e0: 0000 0000 85e8 e9bb e578 13bc 0000 0000
000001f0: 0e63 4c3d 4a39 efbc 0000 0000 0161 333b
00000200: 0000 0000 2535 4dbd 0000 0000 148d fbbb
00000210: c957 2abd d679 683d a164 2abc 0000 0000
00000220: 84f6 953c 7f39 fd3c d465 513c 18d8 aebb
00000230: 78df 773b 627e 613d a8c4 bcbb 2f9b 3f3d
00000240: 16fe ac3c acbb ecbb 042a 97bb 0000 0000
00000250: 54bb b7bb 69b8 a8bb c9e0 123c 4479 d23c
00000260: 92d8 a8bb e1d6 ccbc 0000 0000 aa1f ba3c
00000270: b733 b6bd 0000 0000 e1f6 143d dc4d 1abd
00000280: c584 2abc 2ff8 4b3d 45b9 903c 33e0 053d
00000290: 7715 2e3d 747b 88bd 0000 0000 c147 08ba
000002a0: 428f b03c f2c5 b5bb 205c 573d 9bf8 86bd
000002b0: 6e73 c2bb 8e4c 8abd 0000 0000 faeb 553d
000002c0: 0000 0000 ffd7 1abc 7013 42bb 6f96 16bc
000002d0: baea 14bc 232e 473d 6f88 5b3d 1dac 62bd
000002e0: 0000 0000 c8ed 07bc 0afe bebb d656 ebbb
000002f0: 0000 0000 0000 0000 0021 65bb becb 733d
00000300: 3dca 1d3b ef14 1a3d 805e 9ebb 95ad 68bd
00000310: f3f8 17bd 8322 0bbc d18b bf3c af7e b3bc
00000320: 0000 0000 0ed7 f93c 0000 0000 6c92 8a3d
00000330: 0000 0000 5edc cfbc 89b0 12bc 8c0b 09bc
00000340: 10f2 183c 0c0f 5f3d 5990 e8bb 1995 653d
00000350: 7777 c43b cc36 19bb 9269 013d 5846 4bbd
00000360: 24dd 803c 7dc0 a8bb 2db3 32bc 5b61 083d
00000370: 0000 0000 8b6e e9bc fdda 9dbb 942d 0c3d
00000380: 66f4 0e3d e622 72bd 2774 03bc 4f7a 6dbc
00000390: 0000 0000 ca5a eabb f692 753d 0000 0000
000003a0: 4411 753d 1f52 39bc 0000 0000 ca6c d4bc
000003b0: 42ab 5fbb d443 da3c d6a2 1e3d 69cc 3dbd
000003c0: 1d81 21bd e54b cabb 5a3e a4bb d954 93bc
000003d0: a278 bd3c 693d 7bbd 813e 93bc 0000 0000
000003e0: 0000 0000 c3f2 243c 205a c8bc 1e7a 523d
000003f0: 12c4 d4bb 0000 0000 0000 0000 8f0e 32bc

sequential_2_1/dense_8_1/MatMul f4 [256, 63]
0.009341404 0.095605776 -0.051920533 0.011006683 -0.019177899 0.11796743 -0.08318124 0.0026379377
-0.0031890273 -0.120795935 0.12937075 0.028340966 0.0019500703 -0.07262262 -0.027335316 -0.09505078
-0.10729761 0.06459798 -0.12666763 0.013083205 0.13279098 -0.013468087 -0.07598324 -0.08410015
-0.025284432 -0.11257839 -0.05479066 0.054419503 0.07435617 0.13299167 -0.12305611 0.038422167
-0.12765378 -0.020194411 0.092445284 -0.1287623 -0.12135517 0.026955396 -0.08061821 -0.09958635
-0.017488427 0.073087156 -0.013881713 0.025431931 0.10970421 -0.13573304 -0.11025225 -0.12108711
-0.10147456 -0.06133859 -0.027929433 -0.05399061 0.13585424 -0.0448106 0.042383596 -0.13356726
-0.10472898 0.044493467 -0.086248696 -0.011379242 0.0045518875 0.11983657 0.069498494 -0.10023209
0.09832782 0.16910219 0.11362201 0.15114634 0.0047095474 -0.008280532 0.029464705 0.018134871
0.113685526 -0.0926638 -0.0029742946 -0.099689275 0.056736205 -0.1314112 0.08409561 0.13049623
0.00041047213 0.052485403 -0.15769738 0.16352533 0.008140415 -0.060851034 -0.06693388 -0.15319364
-0.062741 -0.046752214 -0.05258312 0.079804525 0.16876106 0.08938364 -0.19633718 0.015160425
-0.009934307 -0.23395744 0.20839204 -0.08235018 -0.19107991 -0.09592587 -0.047598794 0.029744618
-0.089747205 -0.018646045 -0.12147076 -0.08490539 -0.022134084 0.09485866 0.09809282 0.08392404
0.008875082 0.004737248 0.005611175 0.123583116 0.031995047 0.082983956 0.027293237 -0.16528192
-0.13217871 0.10739326 -0.08933384 0.029062869 0.21342124 -0.08864905 0.07454816 0.2107961
-0.31523937 -0.074345335 0.22152708 -0.118715666 0.09139457 -0.024872923 -0.08717862 -0.05981804
-0.18510334 0.008560781 0.035321526 -0.11764644 0.07277426 0.073026486 -0.10023359 0.29084378
0.013214148 -0.22747691 -0.11167563 -0.06681837 0.15598236 -0.09599106 -0.019474883 0.30901495
-0.08496228 0.08836817 -0.07569515 0.2523133 0.04844743 -0.17926997 -0.13541691 0.1022641
0.09713806 0.006522225 0.015880842 0.3275491 0.15310113 0.008349028 -0.08949581 -0.003289559
-0.03475042 -0.13479652 -0.08506523 -0.13150801 0.059980806 0.07399536 -0.048120152 0.17443188
0.11361112 -0.08333101 -0.14802289 -0.15710163 0.056511227 -0.24822271 -0.2185775 -0.08732587
-0.050479162 0.09572935 -0.0053683002 -0.029968083 0.11041811 -0.07767913 -0.0021674484 0.12079358
-0.09568548 -0.018744223 -0.070078 0.028610334 0.08073403 -0.12858438 0.11843133 0.028568849
0.051645607 0.11395097 -0.06965168 0.07461226 -0.0053981096 0.10605097 0.021495521 0.0213359
-0.06376183 0.0022300035 -0.1099996 0.055970073 -0.09823158 -0.07922008 0.011984512 0.057527423
0.018294603 -0.05359166 0.05252564 0.019648328 0.08504394 0.029804796 -0.029562436 -0.10628083
-0.12698248 -0.07557528 0.013146505 -0.11249285 0.10658015 -0.10356794 0.123983234 -0.093551196
-0.13068736 -0.0045024455 0.07952155 0.005616531 0.07229933 -0.071416065 0.018310621 0.05859004
0.10787855 -0.020191602 0.13080421 -0.05382035 -0.110283025 0.048752233 -0.12738118 0.034642547
0.09107278 0.010838389 0.005779624 -0.045457527 -0.08882346 0.07661582 -0.15567823 -0.047525942
00000000: b00c 193c f6cc c33d a0aa 54bd 6055 343c
00000010: f81a 9dbc e898 f13d ed5a aabd 40e1 2c3b
00000020: 00ff 50bb dc63 f7bd c479 043e 502b e83c
00000030: 8099 ff3a 2bbb 94bd 50ee dfbc fca9 c2bd
00000040: d9be dbbd f24b 843d 29b5 01be f05a 563c
00000050: 5cfa 073e 40a9 5cbc 1a9d 9bbd b33c acbd
00000060: 4c21 cfbc 808f e6bd 2c6c 60bd fce6 5e3d
00000070: 0c48 983d f82e 083e d804 fcbd 9060 1d3d
00000080: acb7 02be c06e a5bc f453 bd3d 44da 03be
00000090: 0f89 f8bd 90d1 dc3c 291b a5bd eef3 cbbd
000000a0: e443 8fbc b8ae 953d 2070 63bc a056 d03c
000000b0: 9aac e03d 9afd 0abe efcb e1bd 85fc f7bd
000000c0: e5d1 cfbd 2c3e 7bbd 44cc e4bc 4225 5dbd
000000d0: 601d 0b3e 528b 37bd 6c9a 2d3d dbc5 08be
000000e0: 267c d6bd c83e 363d 28a3 b0bd 0070 3abc
000000f0: 0028 953b e06c f53d 3a55 8e3d 7b46 cdbd
00000100: 1960 c93d 2029 2d3e a8b2 e83d 1bc6 1a3e
00000110: 8c52 9a3b 12ab 07bc f75f f13c 958f 943c
00000120: f5d3 e83d 85c6 bdbd 62ec 42bb e429 ccbd
00000130: 3964 683d a890 06be 523a ac3d cea0 053e
00000140: a334 d739 effa 563d 6c7b 21be 2f73 273e
00000150: 605f 053c ef3e 79bd a114 89bd cbde 1cbe
00000160: 5a7e 80bd 407f 3fbd 6661 57bd 8e70 a33d
00000170: b3cf 2c3e c50e b73d 9d0c 49be 6e63 783c
00000180: 81c3 22bc 8a92 6fbe b964 553e 36a7 a8bd
00000190: 74aa 43be c874 c4bd f4f6 42bd fcaa f33c
000001a0: 62cd b7bd 97bf 98bc a9c5 f8bd e1e2 adbd
000001b0: 8a52 b5bc 4245 c23d e3e4 c83d 5ee0 ab3d
000001c0: cb68 113c eb3a 9b3b f3dd b73b 2519 fd3d
000001d0: 3d0d 033d 7ef3 a93d 1196 df3c aa3f 29be
000001e0: db59 07be fff0 db3d a9f4 b6bd 4115 ee3c
000001f0: 198b 5a3e a28d b5bd b5ac 983d efda 573e
00000200: 0e67 a1be 5e42 98bd ffd7 623e 3321 f3bd
00000210: 142d bb3d 4dc2 cbbc b48a b2bd c303 75bd
00000220: bb8b 3dbe 8542 0c3c 4ead 103d 9ef0 f0bd
00000230: ac0a 953d e98e 953d 4547 cdbd 7ae9 943e
00000240: 2780 583c b5ef 68be 31b6 e4bd 12d8 88bd
00000250: d7b9 1f3e f696 c4bd ca89 9fbc 3537 9e3e
00000260: b400 aebd 5ffa b43d 0f06 9bbd 352f 813e
00000270: d070 463d 8c92 37be bbaa 0abe d76f d13d
00000280: 52f0 c63d 64b8 d53b 8a18 823c 84b4 a73e
00000290: 8bc6 1c3e 5dca 083c 9449 b7bd a495 57bb
000002a0: 7556 0ebd 1908 0abe ae36 aebd 09aa 06be
000002b0: 6fae 753d e18a 973d a319 45bd 459e 323e
000002c0: f2ac e83d 73a9 aabd 5093 17be 40df 20be
000002d0: 5178 673d 182e 7ebe c8d2 5fbe e8d7 b2bd
000002e0: 3dc3 4ebd c00d c43d 91e8 afbb a07f f5bc
000002f0: e422 e23d 3c16 9fbd c00b 0ebb a062 f73d
00000300: c0f6 c3bd 7c8d 99bc 0e85 8fbd 3860 ea3c
00000310: e257 a53d a0ab 03be 208c f23d 3809 ea3c
00000320: 588a 533d 205f e93d 8aa5 8ebd 50ce 983d
00000330: a0e2 b0bb 4031 d93d 6017 b03c a0c8 ae3c
00000340: 9095 82bd 4025 123b 7847 e1bd e040 653d
00000350: a32d c9bd 233e a2bd b05a 443c e0a1 6b3d
00000360: 90de 953c ee82 5bbd 2025 573d 88f5 a03c
00000370: 842b ae3d 3029 f43c ec2c f2bc c4a9 d9bd
00000380: b207 02be 36c7 9abd 7064 573c a762 e6bd
00000390: b246 da3d 6e1b d4bd ecea fd3d c597 bfbd
000003a0: e8d2 05be 4089 93bb 32dc a23d e00a b83b
000003b0: ac11 943d 9642 92bd 2800 963c 1cfc 6f3d
000003c0: 6eef dc3d dc68 a5bc 8af1 053e ba72 5cbd
000003d0: 11dc e1bd 6cb0 473d 3670 02be 58e5 0d3d
000003e0: 5e84 ba3d 8093 313c 0063 bd3b ac31 3abd
000003f0: 13e9 b5bd c1e8 9c3d 1d6a 1fbe 90aa 42bd
